…
  File "/home/m/Desktop/vvvc/my-llm-env/lib/python3.10/site-packages/transformers/modeling_utils.py", line 288, in _wrapper
    return func(*args, **kwargs)
  File "/home/m/Desktop/vvvc/my-llm-env/lib/python3.10/site-packages/transformers/modeling_utils.py", line 5103, in from_pretrained
    model = cls(config, *model_args, **model_kwargs)
TypeError: OPTForCausalLM.__init__() got an unexpected keyword argument 'use_flash_attention_2'
>>> tokenizer = AutoTokenizer.from_pretrained("facebook/opt-125m")
>>> 
>>> # تأكد أن النموذج في وضع التقييم
>>> model.eval()
OPTForCausalLM(
  (model): OPTModel(
    (decoder): OPTDecoder(
      (embed_tokens): Embedding(50272, 768, padding_idx=1)
      (embed_positions): OPTLearnedPositionalEmbedding(2050, 768)
      (final_layer_norm): LayerNorm((768,), eps=1e-05, elementwise_affine=True)
      (layers): ModuleList(
        (0-11): 12 x OPTDecoderLayer(
          (self_attn): OPTAttention(
            (k_proj): Linear(in_features=768, out_features=768, bias=True)
            (v_proj): Linear(in_features=768, out_features=768, bias=True)
            (q_proj): Linear(in_features=768, out_features=768, bias=True)
            (out_proj): Linear(in_features=768, out_features=768, bias=True)
          )
          (activation_fn): ReLU()
          (self_attn_layer_norm): LayerNorm((768,), eps=1e-05, elementwise_affine=True)
          (fc1): Linear(in_features=768, out_features=3072, bias=True)
          (fc2): Linear(in_features=3072, out_features=768, bias=True)
          (final_layer_norm): LayerNorm((768,), eps=1e-05, elementwise_affine=True)
        )
      )
    )
  )
  (lm_head): Linear(in_features=768, out_features=50272, bias=False)
)
>>> 
>>> def generate_text(prompt: str, max_new_tokens: int = 50, temperature: float = 1.0):
...     device = next(model.parameters()).device
...     # ترميز المدخل
...     inputs = tokenizer(prompt, return_tensors="pt").to(device)
...     input_ids = inputs["input_ids"]
...     attention_mask = inputs.get("attention_mask", None)
... 
>>>     # توليد النص
…
